model_lib/model_info.pth (torch, 4951 bytes, 6 tensors)

l1.weight f4 [8, 52]
00000000: 720f ed3d 0fa5 b4bc 266a b9bd 5836 49be
00000010: e396 0cbf 96be 65be 8083 62be 0fb2 a43e
00000020: 18c4 d8be 976a c2be d2d2 103f b50a f3bd
00000030: e40f a13e aeb9 b8be dd16 0f3f a362 8cbe
00000040: 84ef afbd 616e 183f 918d 2abe 33d3 72be
00000050: 95a6 813e 70fe a83e 44fa 19bd f8d8 093f
00000060: e69d f23e 42bd 2d3f 0877 383f 7ca2 b93e
00000070: 2617 463e dba8 143e 9466 cc3e d412 6abe
00000080: a626 dc3e 8e8c 3a3f 4f22 9bbe a8d8 213f
00000090: bc15 dcbd aea7 c3bd 2c3c 8abe 0090 d03e
000000a0: 28bb a83e 1d03 c83e 82e3 a5be 138d 43be
000000b0: cdeb 44be 30df e1be 776c 3c3e fffd a13e
000000c0: 2804 5cbe dad1 03bf bfba 84be 94ee b33e
000000d0: d23f f93e 38e2 653e f022 41be 072d 753e
000000e0: e944 d8be db8e 8d3e 238f 343e 0147 453e
000000f0: 3c1e 01bf 5d2e ef3e 5885 893e bda1 3fbe
00000100: cd40 793e 4969 fbbe 40b1 c63e e78e 70be
00000110: 69b5 a4be 75ca de3e 4488 cebd b919 8f3d
00000120: e70f b23e 31b6 293e 929e e23d 06ad 103f
00000130: 239d e83e f372 b93e ce1d 1c3f c999 be3e
00000140: dda1 e63e 309b 033e 3d37 4f3e 8aed 693e
00000150: 19b4 f93e 6b0c 153f 0634 9c3e 74e1 003f
00000160: b4ca 0cbe 5c24 7a3e 3ef2 ca3e fd64 133f
00000170: d4d6 af3e 7bfb 4b3e 81b0 713e 1610 a63e
00000180: 9184 6b3e c463 d03e 1e03 673e bf0f c43e
00000190: 5850 bcbe 9ec9 b63e 38a7 8a3e ae0b c43e
000001a0: e8d7 b23e e6d5 d43c e57f a43e 881c dfbd
000001b0: 08cb 043f 4ef4 d83d 374f c3bd 8fdb 33be
000001c0: ea10 353f e6a7 23be d135 38be f1a0 083f
000001d0: 9c57 13bd cad8 463f 8b48 bcbd 2b28 0f3f
000001e0: 8efb 703e 5cd4 d9be 9fe3 733e fe01 29be
000001f0: 9170 17be edc2 85be 6638 42bd ce17 07bf
00000200: c658 9ebe 94ed cfbe 25db 03bf d10a ed3e
00000210: b9d5 a63e 2888 933e ae38 08bc 48ca 00bd
00000220: 496d 163f d93a f1be 67c1 483e 0891 10bf
00000230: 4fa2 b23e ff1d 20be 5af4 4dbd 4e6d 343f
00000240: 0a97 053f 9ced e73d efa9 7abe ed79 413b
00000250: 0704 353e 0ea4 a9be 68e3 c13e 0220 c73e
00000260: 7a76 a33e c849 8dbe fce0 14be 9a38 2abe
00000270: 06d2 f13e f746 0bbc 17df 62be ea04 e73d
00000280: 7707 22bf 7d14 9bbc 2e47 e53d fbcf b43e
00000290: 2e01 22bf ae17 d0bd 16e2 d03e caf0 9ebe
000002a0: 0603 ef3e 5d26 08bf 5c17 fb3e a845 1cbd
000002b0: cb3e 22be ae6f ea3e 4b9e 7ebe 05f6 b6bb
000002c0: 0a44 0b3f 3790 b73e fb74 423e b6e7 113f
000002d0: 7c8a f13e a08d 0d3f 8702 eb3e 3f17 ff3e
000002e0: e779 c03e 8d88 fc3d 8a2d 7d3e 54fb 873e
000002f0: 52b0 0d3f 6820 373f 6e85 8f3d b7f7 143f
00000300: a416 cfbd 2fca 523e d395 95bc 0577 1c3f
00000310: a2f2 e43e 0434 9a3e b354 943e 3d16 933c
00000320: c3e8 99bc 259c a33e 4d67 913d 9b90 093f
00000330: ace5 89be f05e 763e 904b f7bd b8e0 dd3e
00000340: 46ba c93e cff7 573e a21a a03e 3c82 8e3e
00000350: 430a 443f 5267 383e 8f6e 043f 91f3 38be
00000360: 0416 063f 3fd1 e33e cf2e 8dbe e889 923e
00000370: dede f6bd 46df 303f 5cb5 4dbe 289e b13e
00000380: 03bb f23e f29b 86be a056 8e3e 3910 b33e
00000390: 8baf 41be d856 bdbd 51ac a03d 1865 f0be
000003a0: 9164 46be 415a efbe 2f60 f0be ccf6 cf3e
000003b0: 7851 af3e ec9a 4f3e cf7a 13be c9f1 be3e
000003c0: 4b7f 023f 0a77 f0be 9dd2 a73e d965 f0be
000003d0: 5377 393e 2d75 703e aa46 eb3e 247a 2e3f
000003e0: b9d8 c33e 9ae5 823b f107 0b3f 805e 393e
000003f0: 7201 3e3e e605 f83e b63d a13e f858 db3e
0.115752116 -0.022051362 -0.09053449 -0.19649637 -0.54917735 -0.22435984 -0.22120476 0.32167098
-0.42337108 -0.37971947 0.56571686 -0.118672766 0.31457436 -0.36079162 0.5589426 -0.27419004
-0.08590606 0.59543425 -0.16655566 -0.23713379 0.25322405 0.3300662 -0.037592188 0.53846693
0.47386092 0.6786691 0.7205663 0.36256778 0.19344768 0.14517538 0.3992201 -0.22858745
0.42998236 0.7287072 -0.30299613 0.63221216 -0.10746333 -0.09553467 -0.26999032 0.40734863
0.3295529 0.39064875 -0.32400137 -0.19096784 -0.19230576 -0.4411559 0.18400751 0.31639096
-0.2148596 -0.51492083 -0.25923726 0.35142958 0.48681504 0.22449577 -0.18860984 0.23942958
-0.42240074 0.27648053 0.17632727 0.19265367 -0.5043676 0.4671506 0.26859546 -0.18714042
0.24341126 -0.49103764 0.38807106 -0.23492013 -0.32169655 0.43513837 -0.10084584 0.06987328
0.34777758 0.16573407 0.11065401 0.5651401 0.45432386 0.36220512 0.6098298 0.37226704
0.45045367 0.12852168 0.20235915 0.2284452 0.48770216 0.58222073 0.3050844 0.50344014
-0.137492 0.24427933 0.3963794 0.5757597 0.34343588 0.19920151 0.23602487 0.32434148
0.22999789 0.40701115 0.22559783 0.38293263 -0.36780047 0.35700697 0.27080703 0.3829016
0.34930348 0.025980901 0.32128826 -0.10894114 0.518723 0.105934724 -0.095365934 -0.17564224
0.70728934 -0.15982017 -0.1798928 0.5337058 -0.035972223 0.77674544 -0.09193524 0.55920666
0.2353346 -0.4254483 0.238173 -0.16504666 -0.14789034 -0.2612528 -0.047417067 -0.527707
-0.30927104 -0.40610945 -0.51506263 0.46297315 0.32584932 0.28814816 -0.008314295 -0.03144291
0.58760506 -0.4711521 0.19605027 -0.564713 0.34889457 -0.15636443 -0.05028186 0.70479286
0.5218359 0.11324617 -0.24478887 0.0029522136 0.17677318 -0.33132976 0.3786881 0.38891608
0.31926328 -0.27595353 -0.1453895 -0.16623154 0.47230548 -0.008500806 -0.22155415 0.11280234
-0.6329264 -0.018930668 0.11195217 0.35314927 -0.6328305 -0.101607665 0.4079749 -0.31043082
0.46681994 -0.5318354 0.4904126 -0.038152367 -0.15844266 0.4578833 -0.24865071 -0.005583527
0.54400694 0.35852215 0.18989937 0.5699419 0.47175968 0.5529423 0.45900366 0.49822423
0.37593004 0.123307325 0.24724403 0.26558936 0.5534717 0.71533823 0.070078716 0.5819048
-0.1011174 0.2058494 -0.018259918 0.6111911 0.44716364 0.3011781 0.2897087 0.01795494
-0.018787747 0.31955066 0.07099781 0.53736275 -0.26933038 0.24059653 -0.12074959 0.4333551
0.39399928 0.21090625 0.3127032 0.27833736 0.7657816 0.18008164 0.517312 -0.18061663
0.52377343 0.4449558 -0.27574775 0.2862084 -0.12054227 0.6909069 -0.20088714 0.34690976
0.47408304 -0.26290852 0.27800465 0.34973314 -0.1891462 -0.0924508 0.07845367 -0.46952128
-0.193743 -0.46748546 -0.46948382 0.4061798 0.34241843 0.20273942 -0.14402317 0.37293842
0.50975484 -0.4696582 0.32777873 -0.46952704 0.18111925 0.23482199 0.4595235 0.6815512
0.38251284 0.003994656 0.5430899 0.18102455 0.18555239 0.48442 0.31492394 0.42841315

l1.bias f4 [8]
00000000: 2dc1 563f fa83 283f 79cf 123f 680a 223f
00000010: 686b f03e 8a71 2c3f 27e8 1c3f 05fc 9f3e
0.8388851 0.6582638 0.5734783 0.6329713 0.46956944 0.67360747 0.61291736 0.31246963

l2.weight f4 [8, 8]
00000000: aae1 06be 7a9a 4e3d 20e9 90bd 835e 193e
00000010: c1df 5b3e e0ff babe 7892 cbba fb3a 34bd
00000020: 5cb2 083f c9b5 8e3f c14d 88be cf6b 813f
00000030: 69d7 0abe a383 a83f f0bf 4fbf f41b 8e3d
00000040: eaaa 8c3f c9b6 623f 3f84 ce3b 194b 693f
00000050: 3d73 abbe f222 87bf 7804 3f3f 382b 5c3e
00000060: ff68 d9be 925c e33e a836 9d3f 0a98 643e
00000070: ae90 823f 74b9 d3bd eedd 633f d480 843f
00000080: be5d 4dbe 63ff 13be d5a0 afbd 19cd fabd
00000090: 6f17 1cbe c162 3dbe b42d a4be d3c5 a2be
000000a0: 0733 3abe cf68 28be e032 4d3e eaae 8fbe
000000b0: 89ef 98be f842 c33d 7600 833d 411c 81be
000000c0: 10b3 4ebd 9d59 4bbf 2fed 923f ddd7 92bf
000000d0: 7b62 583f 4a79 823f 8ddb 7b3f 265f 82bf
000000e0: 1316 43bf e3b2 043f ff66 50bf c8c3 6f3c
000000f0: 224f 4d3f 2e82 333f 931b e4be c35b 2d3f
-0.13172022 0.05044029 -0.07075715 0.1497746 0.21472074 -0.36523342 -0.0015531322 -0.04400156
0.53397155 1.1149226 -0.26621822 1.0111026 -0.13558735 1.3165172 -0.8115225 0.069389254
1.0989659 0.8856016 0.006302386 0.91130215 -0.33486357 -1.055754 0.74616194 0.21500862
-0.42462918 0.44406563 1.2282305 0.22323623 1.0200403 -0.10338107 0.8901051 1.0351815
-0.20055291 -0.14452891 -0.08575598 -0.122461505 -0.15243314 -0.18494703 -0.3206612 -0.31791553
-0.18183528 -0.16446231 0.20038939 -0.28063136 -0.2987025 0.09534258 0.06396572 -0.2521687
-0.050463736 -0.79433614 1.1478633 -1.1472126 0.8452527 1.0193264 0.9838188 -1.0185287
-0.7620556 0.5183546 -0.8140716 0.01463408 0.8019887 0.70120513 -0.44552287 0.6771814

l2.bias f4 [8]
00000000: 13e0 b7be 9d17 6d3f d23a 973e 2a68 57be
00000010: 4046 2abe 941b abbe f790 2a3f 5c6f 73bd
-0.35913143 0.92614156 0.29537064 -0.21035829 -0.16628361 -0.33419478 0.6662745 -0.059432372

l3.weight f4 [8, 8]
00000000: 58f6 353e 670b 913f 7c0a 773f 5f7a a8bf
00000010: 1a05 943d f97f 513d 2755 16bf d758 3cbf
00000020: a183 75be 638a b5be bb23 733f 110c 973f
00000030: f003 343e 7c67 413e 4698 f3be da29 42bf
00000040: 0488 463e 1b63 853e 2cc1 86bf 802b 413f
00000050: 871e 8a3e c4b8 2a3e 3661 953f 31ba 48bf
00000060: 72ea 7c3e 41f7 273f 2bd9 8bbf d209 553f
00000070: 242e a3be ccca 673e dfd4 3cbf fc39 6c3f
00000080: d48e 06be e510 4d3d 787e e0be e412 273e
00000090: 4251 a33e eecb a53e 2bb5 d3be cd98 8abe
000000a0: dd5d 6fbe b958 c9be e291 cfbb 19b5 d8bd
000000b0: 14ae 92be b44e 043e 477a e2bd 7afa 26be
000000c0: 1d36 c6bd 7fa6 16bd 035f 473c 9581 12bd
000000d0: 8acd 7e3d d511 723e 5ce4 3a3d 787e d63c
000000e0: 6078 4cbe 07d9 8dbd 2f31 a0be b849 13be
000000f0: c93e a73d 724e a4be e1ed 17be cc15 87be
0.17769754 1.1331605 0.9650037 -1.3162345 0.072275355 0.051147435 -0.5872368 -0.7357306
-0.23975994 -0.35457143 0.94976395 1.1800557 0.17579627 0.18887132 -0.47577113 -0.7584511
0.19387823 0.26052174 -1.0527701 0.75457 0.26976416 0.16672045 1.1670291 -0.78409106
0.24698809 0.65611655 -1.092565 0.8321811 -0.3187114 0.22635955 -0.73762316 0.9227598
-0.13140422 0.05006494 -0.43846488 0.163158 0.31897932 0.32382149 -0.41349158 -0.27069703
-0.2337565 -0.39325503 -0.0063345293 -0.10581417 -0.28648436 0.12920648 -0.11058479 -0.16306487
-0.0967829 -0.036779877 0.012168649 -0.03576811 0.062207736 0.23639615 0.045627937 0.026183352
-0.19967794 -0.0692616 -0.31287524 -0.1438359 0.08166272 -0.320911 -0.14836837 -0.26383817

l3.bias f4 [8]
00000000: 4f35 133f b0f5 8f3e 93a1 043f baf4 b83e
00000010: 6105 11bb 3841 f83d 91cf 08be 3327 dfbd
0.5750322 0.28117132 0.5180904 0.36124212 -0.002212845 0.121218145 -0.1336043 -0.108961485
